Models/checkpoints/dqn_episode_1300.pth (torch, 96153 bytes, 24 tensors)

fc1.weight f4 [64, 12]
0	0xbd0e4cd0	-0.034741223
1	0x3d3986f8	0.04529473
2	0x3e31242c	0.17298955
3	0x3e261466	0.16218719
4	0x3d9067f4	0.070510775
5	0x3d38e4c0	0.045140028
6	0x3e2f34dc	0.17110008
7	0xbe3b8014	-0.18310577
8	0xbe12b9e0	-0.14328718
9	0x3cda92f0	0.026681393
10	0xbc7f7160	-0.015590996
11	0x3d4a7ab0	0.04943341
12	0xbf2f2d73	-0.68428725
13	0xbf7d94f2	-0.990554
14	0xbf9b749e	-1.2144964
15	0x3f019473	0.5061714
16	0x3f608632	0.87704766
17	0x3f71c253	0.9443714
18	0x3d80fd0a	0.06298263
19	0x3e889cc2	0.26682097
20	0x3ddd820d	0.10815821
21	0xbea0af2d	-0.3138365
22	0xbedc805f	-0.4306669
23	0xbec22a96	-0.37923115
24	0xbeef49d8	-0.46736026
25	0xbdb81e23	-0.08990123
26	0xbef68d53	-0.48154697
27	0xbd663bbd	-0.056209315
28	0xbd980343	-0.07422497
29	0x3e6dd5c1	0.23226072
30	0xbfd38d70	-1.6527538
31	0xbfc792fc	-1.5591731
32	0xbfe7f281	-1.8120881
33	0xbdacd29a	-0.084386066
34	0xbeb28be1	-0.34872344
35	0xbe8d8541	-0.27640727
36	0x3f638a14	0.88882565
37	0x3f04b899	0.51844174
38	0x3f45d626	0.7727989
39	0x3f140277	0.5781626
40	0x3efb1ba5	0.4904453
41	0x3f717372	0.9431678
42	0xbfb26e88	-1.3939981
43	0xbfb5d091	-1.4204274
44	0xbfa657af	-1.2995509
45	0x3ef76c29	0.48324707
46	0x3ebfe50d	0.3747944
47	0x3d8104d1	0.06299747
48	0xbecdbc6b	-0.40182814
49	0xbe88ab9d	-0.2669343
50	0xbe801f35	-0.2502381
51	0xbe20c33d	-0.15699477
52	0xbed1a63a	-0.40947133
53	0xbeb5fc0f	-0.35543868
54	0x3ddb1f38	0.10699314
55	0x3ccf5d67	0.025313092
56	0x3e39da21	0.18149616
57	0xbf0bfadd	-0.5467966
58	0xbf3aa118	-0.7290206
59	0xbe265c87	-0.16246234
60	0xbe57d3d8	-0.21076906
61	0xbe610f8d	-0.21978588
62	0x3a5c3e00	0.00084015727
63	0xbe85dd42	-0.2614537
64	0x3e742b08	0.2384454
65	0x3da37510	0.07981312
66	0x3e6cd938	0.23129737
67	0xbd839f22	-0.064268366
68	0xbe63ce7c	-0.22246736
69	0x3e865718	0.26238322
70	0xbd7a4a00	-0.06110573
71	0x3b6eba80	0.003642708
72	0xbea8e214	-0.32984984
73	0xbe8855af	-0.2662787
74	0xbf5a6c6f	-0.85321707
75	0xbf61b7d6	-0.88171136
76	0xbf425ea9	-0.7592569
77	0xbeab9fae	-0.33520263
78	0x3ea263e5	0.31716838
79	0x3e01e50f	0.12685035
80	0x3ea027dd	0.31280413
81	0xbf1f08f1	-0.6212302
82	0xbed0dee8	-0.40795064
83	0xbee9118d	-0.45521203
84	0xbe68be1b	-0.2272877
85	0xbc34f6a0	-0.011045128
86	0x3e09b774	0.13448888
87	0xbe47a764	-0.19497448
88	0x3def39b4	0.11680928
89	0x3db9b5a0	0.09067845
90	0xbe5fb20a	-0.2184526
91	0x3dc26f90	0.09493935
92	0x3db0e874	0.08638087
93	0x3e884b30	0.26619864
94	0xbce7bd10	-0.028288394
95	0xbe437a77	-0.19089685
96	0x3f18dbea	0.5971056
97	0x3f740aaf	0.953288
98	0x3f97bcff	1.1854552
99	0xbed9343b	-0.4242266
100	0xbed81c8c	-0.4220928
101	0xbf0ffd3b	-0.56245774
102	0xbf1e2e39	-0.6178928
103	0xbf0c68ac	-0.54847217
104	0xbedccc5e	-0.4312467
105	0x3d70ebf3	0.05881877
106	0x3e14f9dc	0.14548439
107	0x3cd02972	0.025410388
108	0xbe5481c2	-0.20752624
109	0x3e3d3eac	0.18480939
110	0x3e0e3924	0.13888985
111	0xbca0c4c0	-0.019625068
112	0xbd0acae8	-0.033884913
113	0x3df7b6a8	0.12095386
114	0x3e63fd30	0.22264552
115	0x3cd7c640	0.02633965
116	0x3e490a8e	0.19632933
117	0xbd89235e	-0.06696199
118	0xbe880300	-0.2656479
119	0xbdd0ef72	-0.102019206
120	0x3e0a1c80	0.13487434
121	0xbd0ada38	-0.033899516
122	0xbd803ca0	-0.06261563
123	0xbe7789c9	-0.24173655
124	0x3dbcee9c	0.092251986
125	0xbd459124	-0.04823412
126	0xbdc02594	-0.093821675
127	0xbcd37300	-0.025811672
128	0xbe0d0b78	-0.13773906
129	0xbe506ec2	-0.20354751
130	0x3e5a59b0	0.21323276
131	0xbe7093aa	-0.2349383
132	0x3e97c6bf	0.2964382
133	0x3ed5d01a	0.4176033
134	0x3ef34169	0.4751084
135	0xbf7ff4c0	-0.99982834
136	0xbfaa8c78	-1.3324118
137	0xbfa51c4a	-1.2899258
138	0x3f9bf273	1.2183365
139	0x3fa6bcbb	1.3026346
140	0x3fbc33be	1.470329
141	0xbdb52ee1	-0.08846832
142	0x3d8326c9	0.06403882
143	0x3a63ddf9	0.00086924393
144	0x3f36df33	0.71434325
145	0x3f41e9c1	0.75747305
146	0x3f8f6358	1.1202192
147	0x3edba256	0.4289729
148	0x3f312930	0.6920347
149	0x3efa6d57	0.48911545
150	0xbe398343	-0.18116479
151	0xbe60eade	-0.21964595
152	0xbd901fbc	-0.07037303
153	0x3f1b82ff	0.6074676
154	0x3f1dc2e6	0.61625516
155	0x3eb2e913	0.34943447
156	0xbff25edf	-1.8935202
157	0xbfd783fa	-1.6837151
158	0xc003a789	-2.0571005
159	0xbfc3115c	-1.5239673
160	0xbf97a398	-1.18468
161	0xbfdbabaf	-1.7161769
162	0x3f099db4	0.5375626
163	0x3eafd4ff	0.3434219
164	0x3f31cb05	0.6945041
165	0xbea2acec	-0.31772554
166	0xbef28423	-0.47366437
167	0xbd2be8e4	-0.04197015
168	0x3d169a24	0.036768094
169	0x3dd586c1	0.10426093
170	0x3ed00f11	0.40636495
171	0x3e54d691	0.20784976
172	0xbd918a4a	-0.07106455
173	0xbe0a6f17	-0.1351894
174	0x3d08d896	0.033409677
175	0x3e84a831	0.2590957
176	0x3e05a2b7	0.13050352
177	0x3d954945	0.07289366
178	0xbec2aadb	-0.38020977
179	0xbe311629	-0.1729361
180	0xbdee48c0	-0.1163497
181	0x3e442d0a	0.19157806
182	0xbdf6ccd8	-0.120507896
183	0xbdb0a33e	-0.08624886
184	0x3d839f5c	0.0642688
185	0xbe8ee343	-0.27907762
186	0xbe664cb8	-0.22490203
187	0xbe832fe2	-0.2562247
188	0xbe6c7484	-0.23091322
189	0x3e006844	0.12539774
190	0x3cc4e580	0.024035215
191	0xbe8a7301	-0.27040866
192	0x3f526da8	0.8219857
193	0x3eca2a17	0.39485237
194	0x3f34ba28	0.7059655
195	0xbf31c3f1	-0.6943961
196	0xbf42458b	-0.75887364
197	0xbf94d3f9	-1.1627189
198	0xbf5d2528	-0.8638482
199	0xbf6ec8e8	-0.9327531
200	0xbf9d0930	-1.2268429
201	0xbec8b3d5	-0.391997
202	0xbe910c76	-0.2832982
203	0x3d334b94	0.04377325
204	0x3e02931e	0.12751433
205	0x3d422a1e	0.047403447
206	0x3e595ba8	0.2122637
207	0xbf51cc51	-0.8195239
208	0xbf888ffd	-1.0668942
209	0xbfafd067	-1.3735474
210	0xbef28c52	-0.4737268
211	0xbe8dd3bc	-0.27700603
212	0xbe2c29ac	-0.16812772
213	0xbddb906e	-0.10720907
214	0x3e9cb8bf	0.306097
215	0xbd53d481	-0.05171633
216	0xbf17b9e4	-0.5926802
217	0xbf26323b	-0.64920396
218	0xbf2d0769	-0.6758943
219	0xbcb1cb4f	-0.02170339
220	0x3e9bc48c	0.3042339
221	0xbdde9d87	-0.1086989
222	0x3f5c8657	0.86142486
223	0x3f8590e9	1.0434848
224	0x3f9c4068	1.2207155
225	0x3dcef676	0.101056024
226	0xbd8abe72	-0.06774606
227	0xbd87e522	-0.066355005
228	0x3c812840	0.015766263
229	0xbe07fba6	-0.1327959
230	0xbe23136a	-0.15925375
231	0x3d66a278	0.056307286
232	0x3dca3b68	0.09874612
233	0x3e1d9a2e	0.15390846
234	0xbe0d090d	-0.13772984
235	0x3e41ea56	0.18937048
236	0xbe1ea656	-0.1549314
237	0xbdc2bc64	-0.09508589
238	0x3e12f9ac	0.14353055
239	0xbd43e8b8	-0.04782936
240	0xbf1ed0c7	-0.6203732
241	0xbf123231	-0.57107836
242	0xbf7f9633	-0.9983856
243	0x3dc6f2c8	0.097142756
244	0x3e83dc50	0.25754023
245	0x3eb0f54e	0.34562153
246	0xbf169028	-0.58813715
247	0xbef7a550	-0.4836831
248	0xbed58eee	-0.4171061
249	0xbf7e80ff	-0.9941558
250	0xbf5ac369	-0.8545442
251	0xbe720968	-0.236364
252	0x3ef2b60a	0.4740451
253	0x3f57c5e4	0.8428633
254	0x3f12a489	0.5728231
255	0xbfe92b02	-1.821625

fc1.bias f4 [64]
0	0xbe569aa8	-0.20957434
1	0xbe1f6b54	-0.15568286
2	0x3e311818	0.17294347
3	0xbde7e665	-0.11323241
4	0xbcd57ee7	-0.026061488
5	0xbe3942e1	-0.18091919
6	0xbcc99364	-0.024606414
7	0xbd55c5a0	-0.052190423
8	0xbed40a85	-0.41414276
9	0xbe8e821b	-0.27833638
10	0xbe8d2a8a	-0.27571517
11	0xbd9fb08d	-0.07797346
12	0xbe3b605d	-0.18298478
13	0x3d2fac60	0.042889
14	0xbdf3858b	-0.11890706
15	0xbd166468	-0.03671685
16	0x3e7a0788	0.24416935
17	0xbd9ecde4	-0.07754114
18	0xbe4a67fd	-0.19766231
19	0xbe83b879	-0.2572668
20	0x3e8dfebf	0.27733418
21	0x3e724151	0.23657729
22	0x3dae1d90	0.08501732
23	0x3db26032	0.08709754
24	0x3c215b0d	0.009848368
25	0xbe496b63	-0.19669871
26	0x3da0a58c	0.078440756
27	0xbd721dc8	-0.059110433
28	0x3c50b0c2	0.012737455
29	0xbe3d8b93	-0.18510275
30	0xbd95c9c5	-0.07313875
31	0x3d8a1641	0.06742526
32	0xbda63c66	-0.08116989
33	0xbe2d2446	-0.16908368
34	0x3c581fed	0.013191205
35	0xbe14cdc2	-0.14531615
36	0xbe1404a4	-0.14454895
37	0xbe924e78	-0.28575492
38	0xbe763788	-0.24044621
39	0xbe66937d	-0.225172
40	0x3d8d12b1	0.06888331
41	0xbe8e65b5	-0.2781197
42	0xbd94efc8	-0.07272297
43	0xbe69f2f1	-0.22846581
44	0xbd03abcd	-0.032146264
45	0x3e466df1	0.19377877
46	0xbe23fe2c	-0.16014928
47	0xbe64bbf9	-0.22337331
48	0x3ddc1c86	0.10747628
49	0x3d857aea	0.065175846
50	0xbe5f9340	-0.21833515
51	0x3d8dc483	0.06922247
52	0xbe1a61b3	-0.15076332
53	0xbe530408	-0.20607007
54	0xbe6e12ef	-0.2324941
55	0x3e8dec92	0.2771955
56	0xbdc90fd0	-0.09817469
57	0x3d464139	0.048402045
58	0xbd3c2fa0	-0.045943856
59	0xbe2e68f0	-0.17032218
60	0x3e01a913	0.12662153
61	0xbd8903f0	-0.06690204
62	0xbe477e8e	-0.1948187
63	0xbdb34809	-0.08753974

fc2.weight f4 [64, 64]
0	0xbdd9a50a	-0.10627182
1	0xbf776f1b	-0.9665391
2	0xbf2e4801	-0.6807862
3	0xbf9ac54f	-1.2091464
4	0x3bad80a7	0.0052948776
5	0xbcaa4340	-0.02078402
6	0xbe28fd90	-0.16502976
7	0x3df1c95a	0.11805983
8	0xbe848d5c	-0.258891
9	0x3da057fe	0.07829283
10	0xbd7a0704	-0.061041847
11	0x3f8e4f8b	1.1118025
12	0xbfb9c381	-1.4512788
13	0xbfc5e95a	-1.5461838
14	0xbe3dfe8c	-0.18554133
15	0x3c987e30	0.018614858
16	0xbf45d9db	-0.77285546
17	0x3e84fe73	0.2597538
18	0x3cab4357	0.020906134
19	0xbd07e298	-0.03317508
20	0xbfa11634	-1.2584901
21	0x3eb81598	0.35953975
22	0xbd000eea	-0.031264223
23	0xbf3fa278	-0.7485728
24	0xbe6cf3b6	-0.23139843
25	0x3e4c5f2e	0.19958183
26	0xbed37250	-0.4129815
27	0xbee642f3	-0.44972953
28	0x3d8f2b15	0.06990639
29	0x3db79d7c	0.08965585
30	0x3e7b78b9	0.24557771
31	0xbdda6b6d	-0.10665021
32	0xbcfab508	-0.0306039
33	0xbdc106f4	-0.09425154
34	0xbf15f7b4	-0.5858109
35	0x3d29f1a4	0.041490212
36	0x3ce86b8f	0.0283716
37	0x3dd2ce12	0.10293211
38	0xbd949cc2	-0.07256462
39	0xbdd662ac	-0.10468039
40	0xbe430694	-0.19045478
41	0xbde9a41a	-0.11408253
42	0xbc273210	-0.010204807
43	0x3c01b600	0.007916927
44	0xbed14dee	-0.40879768
45	0xbee5c193	-0.44874248
46	0x3deea0cf	0.116517656
47	0xbcbe50d8	-0.023231909
48	0xbe606a88	-0.21915638
49	0xbe4a0be2	-0.19731095
50	0xbe175c93	-0.14781408
51	0xbf57d38a	-0.8430716
52	0x3ad34900	0.0016119778
53	0xbf600b9d	-0.8751772
54	0x3cf73d00	0.030180454
55	0xbf548035	-0.8300813
56	0xbf69f8bb	-0.9139516
57	0xbb3866c1	-0.0028137418
58	0x3db2fcea	0.08739646
59	0x3d706df8	0.058698624
60	0xbe238320	-0.15967989
61	0x3d9d4e32	0.0768093
62	0x3d5ae90c	0.053444907
63	0xbf84165c	-1.0319324
64	0x3d6a442c	0.05719392
65	0xbd6b8335	-0.057498176
66	0x3ca328cc	0.019916914
67	0xbe253e36	-0.16137013
68	0xbdec5019	-0.11538715
69	0xbc98cb88	-0.018651739
70	0x3da175ee	0.078838214
71	0xbd2eec0c	-0.04270558
72	0xbe0452b3	-0.12922172
73	0xbd89f3c2	-0.06735946
74	0xbd93aea2	-0.07211043
75	0xbdf28df8	-0.11843485
76	0xbd03a26b	-0.032137316
77	0xbdca4823	-0.0987704
78	0xbdf380cd	-0.11889801
79	0xbcc913f8	-0.024545655
80	0xbdab796f	-0.08372771
81	0x3d6f8b83	0.058482658
82	0x3d3f00ae	0.046631508
83	0xbd9a86e0	-0.075452566
84	0x3d408cb8	0.0470092
85	0xbcb09b96	-0.021558564
86	0x3da2fbc4	0.07958177
87	0xbc70deae	-0.0147015285
88	0xbc9f1005	-0.019416818
89	0xbd1f456e	-0.038884573
90	0xbd40f7e0	-0.047111392
91	0x3c8d0a2f	0.01721677
92	0xbc8ef2f6	-0.017449837
93	0x3dce4218	0.100712
94	0x3d80dbc3	0.06291916
95	0x3d3001ce	0.04297047
96	0x3da85676	0.08219616
97	0x3d4e5b48	0.05038002
98	0x3db0890e	0.08619891
99	0x3cbc38f0	0.022976369
100	0xbc5279d2	-0.012846427
101	0x3def6cd4	0.11690679
102	0x3da71d34	0.08159867
103	0xbd857bf4	-0.06517783
104	0xbd72cba5	-0.05927624
105	0x3df715ee	0.1206473
106	0xbd8bef4c	-0.06832752
107	0x3dfd32d0	0.12363207
108	0xbd5ef4a5	-0.05443253
109	0x3c82a143	0.015946036
110	0xbc13cce0	-0.009021014
111	0xbce54870	-0.027988642
112	0xbe0edf7d	-0.13952442
113	0xbdff363a	-0.12461515
114	0xbdc4b560	-0.09604907
115	0xbd85c39a	-0.06531449
116	0xbdc96f4c	-0.09835681
117	0xbdc1c313	-0.094610356
118	0x3be14b80	0.0068754554
119	0x3d39e1fa	0.045381524
120	0xbc7da39f	-0.015480905
121	0xbdc2a616	-0.09504335
122	0xbde8480c	-0.11341867
123	0x3d099240	0.03358674
124	0x3d20c965	0.039254565
125	0xbdc1c1c0	-0.09460783
126	0xbd5b8bc0	-0.053600073
127	0x3d50cda0	0.05097735
128	0xbdc97b96	-0.09838025
129	0xbe26057d	-0.16213031
130	0xbf7e8f02	-0.9943696
131	0xbf35b0a4	-0.7097266
132	0x3dbcfab9	0.09227509
133	0xbc904310	-0.017610103
134	0x3d44e821	0.048072938
135	0x3ca6f3b0	0.020379871
136	0xbd234432	-0.039859958
137	0xbdfd70ac	-0.12375006
138	0x3d8fe9d0	0.07027018
139	0x3d0025d4	0.031286076
140	0xbdf99b62	-0.1218784
141	0xbdb04736	-0.086073324
142	0xbe0eb143	-0.13934807
143	0x3df30b8e	0.11867438
144	0xbe920851	-0.2852197
145	0x3e6e8222	0.23291829
146	0xbe8bfa70	-0.27339506
147	0xbd73d32c	-0.05952756
148	0xbe54ab1d	-0.207684
149	0x3eb0a88b	0.34503588
150	0x3d5e96fc	0.05434321
151	0x3e9f4036	0.31103677
152	0xbe376d93	-0.17912893
153	0x3c77c5cf	0.015122845
154	0xbd81971f	-0.06327652
155	0xbef548cb	-0.479071
156	0xbb00dc1b	-0.0019662443
157	0xbd843c12	-0.0645677
158	0x3e16a1d9	0.14710177
159	0xbdce0f32	-0.10061492
160	0x3d239148	0.039933473
161	0xbd478d74	-0.048718885
162	0xbebe004f	-0.3710961
163	0x3d6e48f0	0.058175027
164	0xbd37ca4b	-0.044870656
165	0xba2faf00	-0.0006701797
166	0xbd0adedc	-0.03390394
167	0xbdbaca42	-0.09120609
168	0xbefbdeaa	-0.49193317
169	0xbc1585e0	-0.009126157
170	0xbdfd711c	-0.123750895
171	0x3ba3d180	0.0049993396
172	0xbea2c6b0	-0.31792212
173	0xbea7ad5a	-0.32749444
174	0x3db7c98d	0.0897399
175	0x3d90dbf6	0.07073204
176	0xbc11bfcb	-0.008895825
177	0xbe862fa2	-0.26208216
178	0x3db58886	0.088639304
179	0xbc116059	-0.008873069
180	0xbdcd54c4	-0.100259334
181	0xbe6cac16	-0.2311252
182	0xbb9e82c0	-0.004837364
183	0xbf443d2a	-0.7665583
184	0xbe8af196	-0.2713744
185	0xbdd5a468	-0.10431749
186	0xbdc16eae	-0.094449386
187	0x3d3f94f0	0.046772897
188	0xbf1047e3	-0.5635969
189	0x3b150dc0	0.0022743791
190	0xbd977732	-0.073957816
191	0xbe822c20	-0.2542429
192	0x3c872af8	0.016499981
193	0x3d130a64	0.03589858
194	0xbd7a9f66	-0.06118717
195	0xbdff345c	-0.12461159
196	0xbd98e726	-0.07465963
197	0xbd986176	-0.07440464
198	0x3de8c81c	0.11366293
199	0x3df3dd12	0.119074
200	0xbdddcae7	-0.10829716
201	0xbae08b00	-0.0017131269
202	0x3dba2f36	0.09091036
203	0x3d555ced	0.052090574
204	0x3c041deb	0.008063774
205	0xbc6ff41e	-0.014645604
206	0xbc6aeb70	-0.014338359
207	0xbd84535e	-0.064612135
208	0x3d9d332d	0.07675777
209	0x3c542280	0.012947679
210	0x3d80ecbd	0.06295154
211	0xbd7f9204	-0.06239511
212	0x3dc910a0	0.09817624
213	0x3c383648	0.01124341
214	0x3d443ff4	0.047912553
215	0x3dc4365c	0.09580681
216	0xbbcac4a0	-0.0061879903
217	0xbdd2bab0	-0.10289514
218	0x3c21bec8	0.009872146
219	0x3d09231b	0.033480745
220	0xbdb72c64	-0.08944014
221	0xbb4bc600	-0.003109336
222	0xbd458541	-0.048222784
223	0x3cfc8370	0.030824393
224	0x3c0787f0	0.008272156
225	0x3df68ee4	0.12038973
226	0xbd5b4504	-0.053532615
227	0x3cc12940	0.02357924
228	0xbd3f5250	-0.04670936
229	0xbd446148	-0.047944337
230	0x3df00578	0.11719793
231	0x3d4285d0	0.047490895
232	0xbcc2460b	-0.02371504
233	0xbc877b08	-0.016538158
234	0xbb6a0440	-0.00357081
235	0xbd50dabc	-0.05098985
236	0xbc976548	-0.018480912
237	0xbd914887	-0.070939116
238	0x3d071064	0.032974616
239	0x3dd8a738	0.105787694
240	0xbbb20aa0	-0.0054333955
241	0xbda2b174	-0.07944003
242	0x3d31b5dd	0.04338633
243	0x3b0af911	0.0021205584
244	0xbcf557a8	-0.029949024
245	0xbda4e87d	-0.08052156
246	0x3b1fa1c0	0.0024357885
247	0x3d9150e5	0.070955075
248	0xbd2e2349	-0.04251412
249	0x3d3d76a4	0.046255723
250	0xbcb293a8	-0.021798924
251	0x3cf07ab0	0.029355377
252	0xbdde29a0	-0.10847783
253	0xbddda3da	-0.10822268
254	0x3d3466a8	0.044043213
255	0xbe06995d	-0.13144441

fc2.bias f4 [64]
0	0xbdd9aeef	-0.10629069
1	0xbd330734	-0.04370804
2	0xbe253685	-0.16134079
3	0xbe078754	-0.13235217
4	0xbecffd61	-0.40623
5	0xbeb0ba7f	-0.34517285
6	0xbea48114	-0.3212973
7	0xbd84b5b7	-0.06479972
8	0xbe04bb31	-0.12962033
9	0xbeb1a33b	-0.34694847
10	0xbe96a2a8	-0.29420972
11	0xbd1459dc	-0.03621851
12	0xbd940255	-0.07227007
13	0xbedee35b	-0.43532833
14	0xbd82d850	-0.063889146
15	0xbd927bec	-0.071525425
16	0xbec45c4c	-0.38351667
17	0xbdaf90c7	-0.08572536
18	0xbe74e11a	-0.23913994
19	0xbea2f835	-0.31829992
20	0xbd6f515e	-0.058427207
21	0xbc636754	-0.013879616
22	0xbe18a0f3	-0.14905147
23	0xbeb0a0d8	-0.34497714
24	0xbdb22648	-0.08698708
25	0xbdab59ff	-0.08366775
26	0xbde98fbf	-0.114043705
27	0xbe8b4498	-0.2720077
28	0xbe1ccc63	-0.15312342
29	0xbc7105d7	-0.014710865
30	0xbedf47ec	-0.4360956
31	0xbded6059	-0.115906425
32	0xbd64f2b7	-0.055895533
33	0xbea55c54	-0.32297003
34	0xbdb277d0	-0.08714259
35	0xbd014542	-0.03156019
36	0xbde977ab	-0.11399778
37	0xbd800d7b	-0.06252571
38	0xbe0c071e	-0.1367459
39	0xbd1ccead	-0.03828304
40	0xbd5f3acd	-0.054499436
41	0xbe11cba7	-0.14237843
42	0xbe145a98	-0.14487684
43	0xbdfcd4df	-0.123452894
44	0xbde51335	-0.11185304
45	0xbdd7fd12	-0.10546316
46	0x3c916479	0.017748104
47	0xbe00e9f1	-0.12589242
48	0xbe085ee9	-0.13317455
49	0xbc883870	-0.016628474
50	0xbe87a47e	-0.26492685
51	0xbe97ce9a	-0.29649812
52	0xbdf1f98a	-0.11815174
53	0xbdf820fa	-0.12115665
54	0xbda99f75	-0.08282367
55	0xbda16d38	-0.0788216
56	0x3ddedcc8	0.108819544
57	0xbd73ba3a	-0.05950377
58	0x3dcab6f1	0.098981746
59	0xbdd1e584	-0.10248855
60	0xbe11dbe5	-0.1424404
61	0xbe9aa971	-0.302074
62	0xbe0b1df3	-0.13585643
63	0xbe4a263a	-0.19741145

fc3.weight f4 [32, 64]
0	0xbeb89694	-0.36052382
1	0x3cd21c99	0.025648402
2	0xbe2976a9	-0.16549172
3	0x3d8d9119	0.06912441
4	0xbc473599	-0.012158775
5	0xbc206091	-0.009788648
6	0xbe84eb7a	-0.25960904
7	0xbe103283	-0.14081769
8	0x3e59af3a	0.2125825
9	0xbcf1454c	-0.029451989
10	0xbd31fa96	-0.043451868
11	0xbdce0382	-0.10059263
12	0xbdab7899	-0.083726116
13	0xbe8a21e6	-0.26978987
14	0x3bd48b8e	0.006486363
15	0xbd9fc3be	-0.07801007
16	0x3e55e349	0.20887484
17	0xbd4cef1b	-0.050032716
18	0xbd947f2b	-0.07250818
19	0xbe4bd44d	-0.19905205
20	0xbcca02b8	-0.0246595
21	0xbd9ad9a5	-0.07561044
22	0xbe05a8c5	-0.13052662
23	0xbdba6abb	-0.091023885
24	0x3c0a7480	0.008450627
25	0x3bb00bf5	0.005372519
26	0x3dd5f4e8	0.10447103
27	0x3d90e239	0.070743985
28	0xbcaff968	-0.02148123
29	0x3dd3cdac	0.10341963
30	0xbf2deab3	-0.6793625
31	0xbd7ea377	-0.06216761
32	0xbd15c62a	-0.036565937
33	0x3d4d1e17	0.050077524
34	0x3cf8dedb	0.030379703
35	0x3f2695c2	0.6507226
36	0x3ea1874d	0.3154854
37	0xbd75c20d	-0.059999514
38	0xbd21e95b	-0.039529186
39	0x3dd23f3e	0.10265969
40	0x3d07ca17	0.033151712
41	0xbc3e830a	-0.011627922
42	0x3dc6a9f2	0.09700383
43	0xbcf3c996	-0.02975921
44	0x3d5b5300	0.05354595
45	0x3dc1425a	0.09436484
46	0x3d87461e	0.06605171
47	0x3dad55aa	0.08463605
48	0x3d53ac6e	0.051678114
49	0xbed1f1a7	-0.4100468
50	0xbe81be08	-0.25340295
51	0xbd406e37	-0.04698011
52	0x3d183b78	0.03716609
53	0xbdf119bc	-0.117724866
54	0x3cc4483a	0.023960222
55	0x3dae03d7	0.08496826
56	0xbc807a91	-0.015683444
57	0x3a5ad6c5	0.0008348043
58	0x3c610ca6	0.013735926
59	0x3cefffff	0.029296873
60	0x3c2361b8	0.009972028
61	0xbdc16140	-0.09442377
62	0x3cc79938	0.024365053
63	0xbd03afa7	-0.032149937
64	0xbcce4f5c	-0.025184326
65	0xbd850a44	-0.06496099
66	0xbab1f600	-0.0013577342
67	0xbdbb3da8	-0.09142619
68	0xbe50e346	-0.20399198
69	0xbdf4f324	-0.11960438
70	0x3de061cc	0.10956153
71	0xbe2a2635	-0.16616137
72	0xbdb867b3	-0.09004154
73	0x3c9b9bb0	0.018995136
74	0x3bdd2660	0.0067489594
75	0xbd0e151e	-0.034688108
76	0xbd6d1904	-0.057885185
77	0xbdbda59c	-0.09260103
78	0xbdc3ff82	-0.095702186
79	0x3d1377ac	0.0360028
80	0xbb6317b8	-0.0034651589
81	0xbda02540	-0.07819605
82	0x3eadb88c	0.3392986
83	0xbddd701a	-0.10812397
84	0xbdb4b15c	-0.08822891
85	0x3e42ec91	0.19035555
86	0x3d1d5890	0.038414538
87	0xbcbe62cf	-0.023240475
88	0xbdb538a9	-0.08848698
89	0x3da53598	0.08066863
90	0x3d9aaf9a	0.075530246
91	0xbec002bc	-0.37502086
92	0xbd8bfdce	-0.06835519
93	0x3dca031e	0.09863876
94	0x3dae3ad7	0.085073166
95	0xbde423f2	-0.111396685
96	0xbdfc7002	-0.12326051
97	0x3c9849d8	0.018589899
98	0x3b52afc0	0.0032148212
99	0xbc621c22	-0.013800653
100	0x3c881aac	0.01661428
101	0x3d10ab4c	0.03531961
102	0xbcab6da8	-0.020926312
103	0xbc662140	-0.014046013
104	0x3cdbf9c0	0.026852489
105	0x3db6f2ae	0.08933006
106	0xbd47a938	-0.048745364
107	0xbd7a5dc8	-0.061124593
108	0x3d9a76cc	0.0754219
109	0xbd1a7c5c	-0.037716255
110	0xbee07a5e	-0.4384336
111	0x3df3b952	0.119005814
112	0x3df4db9a	0.11955948
113	0xbc76b070	-0.015056714
114	0xbd470c9c	-0.04859601
115	0x3d9373e0	0.07199836
116	0xbd54ae94	-0.051924303
117	0xbcd7faa0	-0.026364625
118	0x3e353cb3	0.17698936
119	0x3e3f719f	0.18695687
120	0xbeccad39	-0.39975908
121	0xbd25df4c	-0.040496156
122	0xbedf0713	-0.43560085
123	0xbe52af2a	-0.20574632
124	0xbd75e18c	-0.06002955
125	0x3ea621da	0.32447702
126	0xbdfb9504	-0.12284282
127	0x3d68d0f1	0.056839887
128	0xbdeee4a2	-0.11664702
129	0x3d5d8cec	0.05408947
130	0xbc1c10c0	-0.009525478
131	0xbd7605e4	-0.06006421
132	0xbdbf34b8	-0.09336227
133	0xbda7bf3c	-0.08190772
134	0xbd9b09d8	-0.07570237
135	0x3dc31d02	0.09527017
136	0xbd922560	-0.07136035
137	0xbd4a1a88	-0.04934171
138	0x3b952dc0	0.004552573
139	0x3cc9c9c0	0.024632335
140	0x3dc34b02	0.09535791
141	0xbd89e966	-0.0673397
142	0xbbde4540	-0.0067831576
143	0xbdf89210	-0.12137234
144	0xbdf9a192	-0.1218902
145	0xbda4b502	-0.08042337
146	0xbc9ee648	-0.019396916
147	0x3cac2ff8	0.021018967
148	0xbd0dbe4c	-0.03460531
149	0xbd8a2268	-0.06744844
150	0x3d15997c	0.036523327
151	0xbbd3bec0	-0.006461948
152	0xbc9d7c68	-0.01922436
153	0xbdc1d3b4	-0.09464207
154	0x3d87f8f4	0.06639281
155	0xbdcabc32	-0.09899177
156	0x3d75f184	0.06004478
157	0x3c911710	0.017711192
158	0x3d304d00	0.043042183
159	0xbd1bf710	-0.038077414
160	0xbd95c824	-0.073135644
161	0xbdcd554c	-0.10026035
162	0xbcc9e7d0	-0.02464667
163	0xbd06269c	-0.032751665
164	0x3da6f0be	0.08151387
165	0x3d4f2ad8	0.05057797
166	0x3dc7b6a8	0.09751636
167	0x3c1c3330	0.009533688
168	0x3d499228	0.04921165
169	0x3c6cbdb0	0.014449522
170	0x3d2d87b0	0.04236573
171	0x3dd7db88	0.10539919
172	0xbda6298c	-0.08113393
173	0xbc7ef170	-0.015560493
174	0xbd4ccc70	-0.049999654
175	0x3dfdfda8	0.12401897
176	0x3d9ce8c6	0.076615855
177	0x3cee6ea0	0.029105484
178	0x3decd1cc	0.11563453
179	0xbc0a11e0	-0.008427113
180	0xbcc1bdb0	-0.02365002
181	0xbd6be0c8	-0.057587415
182	0x3bbfa8a0	0.005848959
183	0xbd9847aa	-0.07435544
184	0xbdf847c8	-0.12123066
185	0xbd825a2e	-0.06364857
186	0xbb7ca0c0	-0.0038547963
187	0xbcfd32d8	-0.030908033
188	0x3ccda6e0	0.025103986
189	0xbd7a3f74	-0.06109567
190	0xbdd22a48	-0.10261971
191	0x3dff3ea8	0.124631226
192	0xbe586096	-0.21130595
193	0xbdadcd40	-0.08486414
194	0x3d814cea	0.06313498
195	0xbd0a8e30	-0.033827007
196	0xbc1770d1	-0.009243206
197	0xbd8481c8	-0.06470066
198	0xbc2d2dd9	-0.010570013
199	0x3e5742f3	0.21021633
200	0xbdae70ba	-0.08517595
201	0x3d5c9ed0	0.053862393
202	0x3c7b50e0	0.015339106
203	0x3cbe0a8c	0.023198389
204	0x3dd7bc7e	0.10533999
205	0x3ca6738d	0.02031877
206	0xbd8723df	-0.06598639
207	0x3d0a333a	0.03374026
208	0xbcc00666	-0.023440551
209	0xbde59510	-0.11210072
210	0x3d320780	0.043464184
211	0xbdd150c2	-0.102204815
212	0xbd39be9c	-0.045347795
213	0x3bea13b2	0.007143461
214	0x3de943c2	0.11389877
215	0xbe3a52cb	-0.18195646
216	0x3b884f8c	0.0041598734
217	0x3c8dd120	0.017311633
218	0xbdefa1fe	-0.117008194
219	0xbd909fab	-0.07061704
220	0xbd92c023	-0.071655534
221	0xbdb8b088	-0.09018046
222	0xbd841339	-0.06448979
223	0xbcef6e3f	-0.029227374
224	0xbddc6a56	-0.107624695
225	0x3ba7789e	0.0051108142
226	0x3d98872d	0.07447658
227	0x3dae2f17	0.085050754
228	0xbd1b3505	-0.03789236
229	0x3c95e640	0.018298268
230	0x3dab47e7	0.08363324
231	0xbc7bcde0	-0.015368909
232	0x3d57ec87	0.052715804
233	0x3dadd16d	0.084872104
234	0xbd3cbb58	-0.046077102
235	0x3db6b26a	0.089207485
236	0xbd217f9c	-0.03942834
237	0xbdde8d6a	-0.10866816
238	0x3ae64a42	0.0017569738
239	0x3c9f486b	0.019443711
240	0xbcfe9310	-0.031075984
241	0xbb28ba1a	-0.002574569
242	0xbe0a4319	-0.13502158
243	0xbc5e2b20	-0.0135600865
244	0x3d3cc29c	0.04608403
245	0x3ce1ce08	0.027564064
246	0xbca8a3af	-0.020585863
247	0x3dec111a	0.11526699
248	0x3d701706	0.058615707
249	0x3ddf6df2	0.10909642
250	0x3dd83891	0.10557664
251	0x3d15ecaa	0.036602654
252	0xbdaf2508	-0.08551985
253	0xbe39c25b	-0.18140547
254	0x3c106d60	0.0088151395
255	0xbd17e716	-0.037085615

fc3.bias f4 [32]
0	0x3d9800ff	0.07422065
1	0xbdbfadad	-0.09359298
2	0xbdab51b0	-0.0836519
3	0xbe1792d0	-0.14802098
4	0xbde9365d	-0.11387322
5	0xbd96838e	-0.07349311
6	0xbdb528cb	-0.08845671
7	0xbd30c4fe	-0.043156616
8	0xbe088525	-0.1333204
9	0xbdf164b6	-0.11786787
10	0xbd9e02da	-0.07715388
11	0x3cc63c30	0.024198622
12	0xbdef3ce5	-0.116815366
13	0xbe8380bc	-0.25684154
14	0xbe023ee3	-0.12719302
15	0xbd9997c0	-0.07499647
16	0xbde70972	-0.112810984
17	0xbe804a80	-0.2505684
18	0xbde456fa	-0.11149402
19	0x3da5c3d1	0.0809399
20	0xbddb3ad8	-0.10704583
21	0xbe172a2b	-0.1476218
22	0xbe092f95	-0.13397057
23	0xbe32a439	-0.17445458
24	0xbdb527a4	-0.088454515
25	0xbe373376	-0.17890725
26	0xbdd15653	-0.10221543
27	0xbd8aca17	-0.06776827
28	0xbdd26aee	-0.102743015
29	0xbe2421f8	-0.16028583
30	0xbde34a7e	-0.11098193
31	0x3dd0ff32	0.10204925

fc4.weight f4 [3, 32]
0	0x3d77deeb	0.060515326
1	0xbe88e3c1	-0.26736262
2	0x3d43c420	0.04779446
3	0xbe26ee77	-0.16301905
4	0x3cb02341	0.021501185
5	0x3d12e522	0.03586305
6	0x3d82894b	0.06373843
7	0xbda2fd22	-0.079584375
8	0xbe09a067	-0.13440095
9	0xbda1953d	-0.07889793
10	0xbb814345	-0.0039447867
11	0xbc07dced	-0.008292419
12	0xbd4af458	-0.04954943
13	0xbf058186	-0.5215076
14	0x3bf73cd1	0.0075450917
15	0x3d45442c	0.048160717
16	0x3df1824e	0.11792432
17	0xbdbf296d	-0.09334073
18	0xbcfdd629	-0.030985909
19	0x3d80b5dc	0.06284687
20	0xbe6c02a0	-0.23047876
21	0x3b1bbd18	0.0023763832
22	0xbe019739	-0.12655343
23	0x3dc11bd5	0.09429137
24	0x3e530aab	0.20609538
25	0xbcd2ca9f	-0.025731383
26	0xbb8a8a0b	-0.004227882
27	0xbc9128ee	-0.017719712
28	0x3e11e711	0.14248301
29	0xbd7f9c3b	-0.062404852
30	0x3e04eb38	0.12980354
31	0x3d4998f0	0.04921812
32	0x3e1d6329	0.15369858
33	0x3ce70da6	0.02820475
34	0x3e11970f	0.1421778
35	0xbdd4c747	-0.10389572
36	0xbddaffcd	-0.106933214
37	0xbdec8c9b	-0.11550256
38	0xbd8961a6	-0.06708078
39	0xbd8ad412	-0.067787305
40	0x3c904084	0.017608888
41	0xbd4b9de9	-0.04971114
42	0xbbe4f620	-0.006987348
43	0xba0caac6	-0.00053660234
44	0xbdee5e4f	-0.11639082
45	0x3c61e636	0.013787797
46	0x3d8a9051	0.067658074
47	0x3ae58f92	0.0017514101
48	0xbdd47a93	-0.10374942
49	0xbc87e1d5	-0.016587177
50	0x3dc49951	0.09599555
51	0x3c50bb25	0.012739931
52	0xbd31ea3e	-0.04343628
53	0xbdd7ec35	-0.105431
54	0x3de4c5d7	0.111705475
55	0xbc61accb	-0.013774107
56	0xbc1c8896	-0.009554049
57	0x3df52cd3	0.1197144
58	0xbd1554f8	-0.036457986
59	0xbdaaf6a0	-0.08347821
60	0x3e1b7971	0.15183045
61	0x3defd898	0.11711234
62	0x3d3e08aa	0.04639498
63	0x3d7331b0	0.059373558
64	0x3e125f16	0.14294085
65	0x3e684642	0.22683051
66	0xbdf389b1	-0.11891497
67	0xbc6c799a	-0.014433289
68	0xbe218f2a	-0.15777269
69	0xbd595a42	-0.053064592
70	0xbc3d06b0	-0.011537239
71	0x3e177973	0.14792423
72	0x3d7d2493	0.061802458
73	0x3c9822c1	0.01857126
74	0xbdc3a1af	-0.09552323
75	0xbe38ce63	-0.1804748
76	0x3ba2a0a5	0.004962998
77	0x3b7763df	0.0037748737
78	0x3d9f8694	0.077893406
79	0x3d2ac0e6	0.04168787
80	0x3e287a1d	0.16452833
81	0xbd3be918	-0.045876592
82	0x3e445a2c	0.19175023
83	0xbd583c71	-0.052792016
84	0xbddfd52a	-0.1092933
85	0xbde650ce	-0.11245881
86	0xbe345c85	-0.17613418
87	0x3c30d09b	0.010791923
88	0x3d62865e	0.055303924
89	0x3dc68fb6	0.096953794
90	0xbda63369	-0.081152745
91	0xbd42fe94	-0.047606066
92	0x3c96f4a8	0.018427208
93	0x3e2e846d	0.17042704
94	0xbc73a499	-0.014870786
95	0xbe986386	-0.2976343

fc4.bias f4 [3]
0	0x3ea3e060	0.32007122
1	0x3ea0671e	0.31328672
2	0x3ea30922	0.31842905

exp_avg f4 [64, 12]
0	0x00000000	0.0
1	0x00000000	0.0
2	0x00000000	0.0
3	0x00000000	0.0
4	0x00000000	0.0
5	0x00000000	0.0
6	0x00000000	0.0
7	0x00000000	0.0
8	0x00000000	0.0
9	0x00000000	0.0
10	0x00000000	0.0
11	0x00000000	0.0
12	0x2f0cefca	1.2818116e-10
13	0x2e525a6e	4.782879e-11
14	0x31037886	1.9131519e-09
15	0xb3c10845	-8.988767e-08
16	0xb35290b7	-4.9026053e-08
17	0xb652efc4	-3.1432e-06
18	0x3014932a	5.405122e-10
19	0x30002147	4.661342e-10
20	0x32e825f0	2.7025607e-08
21	0xb37dc4d9	-5.9085185e-08
22	0xb36c6d56	-5.5047472e-08
23	0xb606a3e0	-2.0062944e-06
24	0x311e2132	2.3010895e-09
25	0x306be88c	8.582297e-10
26	0x33137159	3.4329194e-08
27	0xb376780c	-5.738552e-08
28	0xb3066fad	-3.1300875e-08
29	0xb606a799	-2.006511e-06
30	0x1fa9104a	7.160123e-20
31	0x1f8fb43b	6.086102e-20
32	0x228414b4	3.580059e-18
33	0xb35bcde5	-5.117717e-08
34	0xb3537a97	-4.923876e-08
35	0xb5d2ebe1	-1.5714869e-06
36	0xb40f60b8	-1.3353099e-07
37	0xb3584795	-5.0356523e-08
38	0xb6072cbd	-2.0142609e-06
39	0xb3f33716	-1.1325589e-07
40	0xb383b394	-6.132828e-08
41	0xb68607e8	-3.9944316e-06
42	0xb3443ea2	-4.569177e-08
43	0xb31ec7c2	-3.696892e-08
44	0xb61950ec	-2.284588e-06
45	0xb4f3d93f	-4.5420344e-07
46	0xb4fd4257	-4.717319e-07
47	0xb6fefa80	-7.598952e-06
48	0x00000004	6e-45
49	0x00000004	6e-45
50	0x00000004	6e-45
51	0x80000004	-6e-45
52	0x80000004	-6e-45
53	0x80000004	-6e-45
54	0x00000004	6e-45
55	0x00000004	6e-45
56	0x00000004	6e-45
57	0x00000004	6e-45
58	0x00000004	6e-45
59	0x00000004	6e-45
60	0x00000000	0.0
61	0x00000000	0.0
62	0x00000000	0.0
63	0x00000000	0.0
64	0x00000000	0.0
65	0x00000000	0.0
66	0x00000000	0.0
67	0x00000000	0.0
68	0x00000000	0.0
69	0x00000000	0.0
70	0x00000000	0.0
71	0x00000000	0.0
72	0x80000004	-6e-45
73	0x80000004	-6e-45
74	0x80000004	-6e-45
75	0x80000004	-6e-45
76	0x80000004	-6e-45
77	0x80000004	-6e-45
78	0x00000004	6e-45
79	0x00000004	6e-45
80	0x00000004	6e-45
81	0x00000004	6e-45
82	0x00000004	6e-45
83	0x00000004	6e-45
84	0x00000000	0.0
85	0x00000000	0.0
86	0x00000000	0.0
87	0x00000000	0.0
88	0x00000000	0.0
89	0x00000000	0.0
90	0x00000000	0.0
91	0x00000000	0.0
92	0x00000000	0.0
93	0x00000000	0.0
94	0x00000000	0.0
95	0x00000000	0.0
96	0x00000004	6e-45
97	0x00000004	6e-45
98	0x00000004	6e-45
99	0x00000004	6e-45
100	0x00000004	6e-45
101	0x00000004	6e-45
102	0x00000004	6e-45
103	0x00000004	6e-45
104	0x00000004	6e-45
105	0x00000004	6e-45
106	0x00000004	6e-45
107	0x00000004	6e-45
108	0x00000000	0.0
109	0x00000000	0.0
110	0x00000000	0.0
111	0x00000000	0.0
112	0x00000000	0.0
113	0x00000000	0.0
114	0x00000000	0.0
115	0x00000000	0.0
116	0x00000000	0.0
117	0x00000000	0.0
118	0x00000000	0.0
119	0x00000000	0.0
120	0x00000000	0.0
121	0x00000000	0.0
122	0x00000000	0.0
123	0x00000000	0.0
124	0x00000000	0.0
125	0x00000000	0.0
126	0x00000000	0.0
127	0x00000000	0.0
128	0x00000000	0.0
129	0x00000000	0.0
130	0x00000000	0.0
131	0x00000000	0.0
132	0x3588a0f2	1.0179631e-06
133	0x34ccf486	3.8175875e-07
134	0x378018d2	1.5270347e-05
135	0x34c7e3e1	3.7232442e-07
136	0x345ae187	2.0384878e-07
137	0x37596d53	1.2959662e-05
138	0x34d9c737	4.0564348e-07
139	0x34b3533a	3.3401903e-07
140	0x37aa23a1	2.028217e-05
141	0x36a34533	4.8658344e-06
142	0x36aa1f57	5.0700432e-06
143	0x38b97a71	8.844294e-05
144	0x3389029d	6.380035e-08
145	0x32cd178f	2.3875854e-08
146	0x35802ebb	9.550344e-07
147	0x33b299b6	8.316731e-08
148	0x334443dc	4.5696524e-08
149	0x36416eb5	2.882368e-06
150	0x320c5b04	8.169767e-09
151	0x31db1d7d	6.3770913e-09
152	0x34db4e3a	4.0848846e-07
153	0x351adc59	5.769012e-07
154	0x3521dbe5	6.029716e-07
155	0x372f57b5	1.0451234e-05
156	0xb107fc6c	-1.978857e-09
157	0xb04af6d8	-7.383796e-10
158	0xb2fdb48d	-2.9535181e-08
159	0xb09e91eb	-1.1537485e-09
160	0xb02ef94b	-6.36551e-10
161	0xb32adf72	-3.978443e-08
162	0xb05bf4f7	-8.001985e-10
163	0xb03fd464	-6.978722e-10
164	0xb32bd75e	-4.0009915e-08
165	0xb28e81fb	-1.6590084e-08
166	0xb284fb3e	-1.5481074e-08
167	0xb5125ab0	-5.4521206e-07
168	0x00000004	6e-45
169	0x00000004	6e-45
170	0x00000004	6e-45
171	0x00000004	6e-45
172	0x00000004	6e-45
173	0x00000004	6e-45
174	0x00000004	6e-45
175	0x00000004	6e-45
176	0x00000004	6e-45
177	0x00000004	6e-45
178	0x00000004	6e-45
179	0x00000004	6e-45
180	0x00000000	0.0
181	0x00000000	0.0
182	0x00000000	0.0
183	0x00000000	0.0
184	0x00000000	0.0
185	0x00000000	0.0
186	0x00000000	0.0
187	0x00000000	0.0
188	0x00000000	0.0
189	0x00000000	0.0
190	0x00000000	0.0
191	0x00000000	0.0
192	0xb053a418	-7.6994544e-10
193	0xaff90ea3	-4.5303236e-10
194	0xb29ba918	-1.812127e-08
195	0x319a73e7	4.4951665e-09
196	0x312b6fd0	2.4947333e-09
197	0x34253a1c	1.5387963e-07
198	0x3291d512	1.6977115e-08
199	0x3272c240	1.4130421e-08
200	0x3563dcec	8.4885573e-07
201	0xb3d2f8c0	-9.8241344e-08
202	0xb3e116be	-1.0481516e-07
203	0xb4ac2feb	-3.2072361e-07
204	0x00000004	6e-45
205	0x00000004	6e-45
206	0x00000004	6e-45
207	0x80000004	-6e-45
208	0x80000004	-6e-45
209	0x80000004	-6e-45
210	0x00000004	6e-45
211	0x00000004	6e-45
212	0x00000004	6e-45
213	0x00000004	6e-45
214	0x00000004	6e-45
215	0x00000004	6e-45
216	0x3378555c	5.7819634e-08
217	0x32b953bf	2.1574918e-08
218	0x3567a8b1	8.6299684e-07
219	0x33521317	4.8911797e-08
220	0x32e52fe6	2.668089e-08
221	0x35e5858a	1.7100695e-06
222	0x337de6c0	5.911602e-08
223	0x3353781d	4.9236508e-08
224	0x36465c47	2.9558012e-06
225	0x34d3a032	3.941837e-07
226	0x34db8f29	4.0896091e-07
227	0x36fe3d40	7.5769203e-06
228	0x00000000	0.0
229	0x00000000	0.0
230	0x00000000	0.0
231	0x00000000	0.0
232	0x00000000	0.0
233	0x00000000	0.0
234	0x00000000	0.0
235	0x00000000	0.0
236	0x00000000	0.0
237	0x00000000	0.0
238	0x00000000	0.0
239	0x00000000	0.0
240	0xb31c996a	-3.646111e-08
241	0xb269be24	-1.3605618e-08
242	0xb51216d8	-5.442248e-07
243	0xb380e0a1	-6.001324e-08
244	0xb30c8a32	-3.2721978e-08
245	0xb60ce22b	-2.0993273e-06
246	0xb26894c4	-1.3538003e-08
247	0xb242b3b9	-1.133315e-08
248	0xb535b437	-6.769e-07
249	0xb42616c0	-1.5468231e-07
250	0xb4251d4f	-1.5377485e-07
251	0xb66c94cd	-3.5253354e-06
252	0xb3cb0235	-9.4533256e-08
253	0xb3187e1d	-3.5504957e-08
254	0xb5be9da6	-1.4201985e-06
255	0xb1c19384	-5.63381e-09

exp_avg_sq f4 [64, 12]
0	0x00000000	0.0
1	0x00000000	0.0
2	0x00000000	0.0
3	0x00000000	0.0
4	0x00000000	0.0
5	0x00000000	0.0
6	0x00000000	0.0
7	0x00000000	0.0
8	0x00000000	0.0
9	0x00000000	0.0
10	0x00000000	0.0
11	0x00000000	0.0
12	0x25719c6d	2.0956417e-16
13	0x24068eb5	2.9177496e-17
14	0x29523efa	4.668399e-14
15	0x2b75798b	8.721016e-13
16	0x2a9240c1	2.5979742e-13
17	0x30925055	1.064573e-09
18	0x250c59e1	1.2173516e-16
19	0x24ca1d76	8.7653444e-17
20	0x2aab53c2	3.043382e-13
21	0x2b488244	7.1235053e-13
22	0x2b3229d3	6.3296346e-13
23	0x30542e47	7.7190915e-10
24	0x2600f159	4.473601e-16
25	0x248fcdfb	6.236531e-17
26	0x29e0b1d6	9.978448e-14
27	0x2ae1387c	4.0007223e-13
28	0x2a061fe3	1.1912654e-13
29	0x300650d0	4.886376e-10
30	0x25a8bc82	2.9271092e-16
31	0x2573d2e3	2.1148341e-16
32	0x2b4dfa31	7.317784e-13
33	0x2ac9319b	3.5739193e-13
34	0x2aba1a3a	3.3058436e-13
35	0x2fbf91a4	3.4846181e-10
36	0x2a8fdd07	2.555527e-13
37	0x29214d52	3.5816246e-14
38	0x2e7c08d6	5.7306014e-11
39	0x2a2835b8	1.4940035e-13
40	0x2948b1d2	4.4563156e-14
41	0x2f483918	1.8210178e-10
42	0x28a81b38	1.8663551e-14
43	0x286ff6f7	1.3320717e-14
44	0x2e4d3546	4.665892e-11
45	0x2d1b4e1e	8.828075e-12
46	0x2d282188	9.55714e-12
47	0x31438561	2.8452052e-09
48	0x000001f4	7e-43
49	0x000001f4	7e-43
50	0x000001f4	7e-43
51	0x000001f4	7e-43
52	0x000001f4	7e-43
53	0x000001f4	7e-43
54	0x000001f4	7e-43
55	0x000001f4	7e-43
56	0x000001f4	7e-43
57	0x000001f4	7e-43
58	0x000001f4	7e-43
59	0x000001f4	7e-43
60	0x00000000	0.0
61	0x00000000	0.0
62	0x00000000	0.0
63	0x00000000	0.0
64	0x00000000	0.0
65	0x00000000	0.0
66	0x00000000	0.0
67	0x00000000	0.0
68	0x00000000	0.0
69	0x00000000	0.0
70	0x00000000	0.0
71	0x00000000	0.0
72	0x000001f4	7e-43
73	0x000001f4	7e-43
74	0x000001f4	7e-43
75	0x000001f4	7e-43
76	0x000001f4	7e-43
77	0x000001f4	7e-43
78	0x000001f4	7e-43
79	0x000001f4	7e-43
80	0x000001f4	7e-43
81	0x000001f4	7e-43
82	0x000001f4	7e-43
83	0x000001f4	7e-43
84	0x00000000	0.0
85	0x00000000	0.0
86	0x00000000	0.0
87	0x00000000	0.0
88	0x00000000	0.0
89	0x00000000	0.0
90	0x00000000	0.0
91	0x00000000	0.0
92	0x00000000	0.0
93	0x00000000	0.0
94	0x00000000	0.0
95	0x00000000	0.0
96	0x2646b27f	6.8936957e-16
97	0x24df8ed0	9.695277e-17
98	0x2a2ea786	1.5512426e-13
99	0x2285a8c0	3.6228393e-18
100	0x21a2bbf7	1.1027301e-18
101	0x279b36db	4.3080617e-15
102	0x22a38bd4	4.4329287e-18
103	0x2269d951	3.1692435e-18
104	0x2847a44b	1.10823445e-14
105	0x27b4a639	5.0140255e-15
106	0x27c3f80f	5.439232e-15
107	0x2bd03228	1.479321e-12
108	0x00000000	0.0
109	0x00000000	0.0
110	0x00000000	0.0
111	0x00000000	0.0
112	0x00000000	0.0
113	0x00000000	0.0
114	0x00000000	0.0
115	0x00000000	0.0
116	0x00000000	0.0
117	0x00000000	0.0
118	0x00000000	0.0
119	0x00000000	0.0
120	0x00000000	0.0
121	0x00000000	0.0
122	0x00000000	0.0
123	0x00000000	0.0
124	0x00000000	0.0
125	0x00000000	0.0
126	0x00000000	0.0
127	0x00000000	0.0
128	0x00000000	0.0
129	0x00000000	0.0
130	0x00000000	0.0
131	0x00000000	0.0
132	0x2c470505	2.8282387e-12
133	0x2adf6347	3.9681645e-13
134	0x302e8577	6.3490496e-10
135	0x2ae9ec0f	4.1552913e-13
136	0x2a0cc7b9	1.250379e-13
137	0x3009c239	5.0116317e-10
138	0x2b0bcb3e	4.9664775e-13
139	0x2abfa78c	3.4044675e-13
140	0x30aaa58e	1.2416181e-09
141	0x2eb50c21	8.2330816e-11
142	0x2ec413ba	8.916552e-11
143	0x32dfcf57	2.6054904e-08
144	0x2a365452	1.6194102e-13
145	0x28cbb085	2.261408e-14
146	0x2e1f21e1	3.6182505e-11
147	0x2a8dcfab	2.519073e-13
148	0x29a909d9	7.506816e-14
149	0x2fa8fc7e	3.0738428e-10
150	0x2955b284	4.745034e-14
151	0x29140a38	3.2871465e-14
152	0x2f026e32	1.186258e-10
153	0x2cfcb958	7.182848e-12
154	0x2d0846bd	7.746412e-12
155	0x3127d682	2.4423632e-09
156	0x285716cb	1.193984e-14
157	0x26ef92b0	1.6623716e-15
158	0x2c3b2a96	2.6597938e-12
159	0x2608b96f	4.743579e-16
160	0x252679ae	1.4439432e-16
161	0x2b1ec375	5.6404127e-13
162	0x28b021d3	1.9554594e-14
163	0x287493bb	1.3576755e-14
164	0x2e57013a	4.888643e-11
165	0x2b072171	4.8008044e-13
166	0x2b101313	5.118555e-13
167	0x2f433170	1.775271e-10
168	0x000001f4	7e-43
169	0x000001f4	7e-43
170	0x000001f4	7e-43
171	0x000001f4	7e-43
172	0x000001f4	7e-43
173	0x000001f4	7e-43
174	0x000001f4	7e-43
175	0x000001f4	7e-43
176	0x000001f4	7e-43
177	0x000001f4	7e-43
178	0x000001f4	7e-43
179	0x000001f4	7e-43
180	0x00000000	0.0
181	0x00000000	0.0
182	0x00000000	0.0
183	0x00000000	0.0
184	0x00000000	0.0
185	0x00000000	0.0
186	0x00000000	0.0
187	0x00000000	0.0
188	0x00000000	0.0
189	0x00000000	0.0
190	0x00000000	0.0
191	0x00000000	0.0
192	0x2b990e61	1.0875295e-12
193	0x2a2c81c9	1.5321697e-13
194	0x2f86c56d	2.4514737e-10
195	0x296cd623	5.258826e-14
196	0x288f4117	1.5904417e-14
197	0x2e8a9df3	6.303571e-11
198	0x29a00aa7	7.107275e-14
199	0x295f6289	4.9601413e-14
200	0x2f435d12	1.7768212e-10
201	0x2d9ea0ee	1.8033987e-11
202	0x2dabebf5	1.9545235e-11
203	0x31d25144	6.1210432e-09
204	0x000001f4	7e-43
205	0x000001f4	7e-43
206	0x000001f4	7e-43
207	0x000001f4	7e-43
208	0x000001f4	7e-43
209	0x000001f4	7e-43
210	0x000001f4	7e-43
211	0x000001f4	7e-43
212	0x000001f4	7e-43
213	0x000001f4	7e-43
214	0x000001f4	7e-43
215	0x000001f4	7e-43
216	0x27d039f9	5.779445e-15
217	0x2667f4e7	8.047613e-16
218	0x2bb5375e	1.2876191e-12
219	0x292c3d5d	3.8244896e-14
220	0x284be8e7	1.1319266e-14
221	0x2e4eee36	4.705055e-11
222	0x28db681f	2.435904e-14
223	0x28962539	1.6669488e-14
224	0x2e85ea40	6.089751e-11
225	0x2c906751	4.1041966e-12
226	0x2c9c9dcf	4.451307e-12
227	0x309f2bdb	1.1581237e-09
228	0x00000000	0.0
229	0x00000000	0.0
230	0x00000000	0.0
231	0x00000000	0.0
232	0x00000000	0.0
233	0x00000000	0.0
234	0x00000000	0.0
235	0x00000000	0.0
236	0x00000000	0.0
237	0x00000000	0.0
238	0x00000000	0.0
239	0x00000000	0.0
240	0x29b68912	8.1062015e-14
241	0x284b5a81	1.1288389e-14
242	0x2d9edeac	1.8061407e-11
243	0x2a1911be	1.3595285e-13
244	0x29364dee	4.047971e-14
245	0x2f369668	1.6606239e-10
246	0x2896c082	1.6736832e-14
247	0x285294da	1.1689619e-14
248	0x2e3805fe	4.184208e-11
249	0x2c06c22e	1.9150337e-12
250	0x2c0e983a	2.0263916e-12
251	0x305024a7	7.5722045e-10
252	0x2b38c7c0	6.564714e-13
253	0x29cedb99	9.186332e-14
254	0x2f219b96	1.469814e-10
255	0x27480c63	2.776229e-15

exp_avg f4 [64]
0	0x00000000	0.0
1	0xb6cda9d8	-6.1292485e-06
2	0xb690a8f9	-4.3112054e-06
3	0xb707f51d	-8.103697e-06
4	0x00000004	6e-45
5	0x00000000	0.0
6	0x00000004	6e-45
7	0x00000000	0.0
8	0x00000004	6e-45
9	0x00000000	0.0
10	0x00000000	0.0
11	0x38d74e21	0.000102665515
12	0x37407cf4	1.1473185e-05
13	0xb5dea11e	-1.658718e-06
14	0x00000004	6e-45
15	0x00000000	0.0
16	0x3650755c	3.1062727e-06
17	0x00000004	6e-45
18	0x3729c211	1.011837e-05
19	0x00000000	0.0
20	0xb70267bc	-7.772756e-06
21	0xb718c563	-9.105864e-06
22	0x00000004	6e-45
23	0x37085a31	8.127231e-06
24	0x00000004	6e-45
25	0x33348f54	4.2039872e-08
26	0x3590574f	1.0754246e-06
27	0x00000004	6e-45
28	0x00000004	6e-45
29	0x00000000	0.0
30	0xb591325c	-1.0817998e-06
31	0x00000004	6e-45
32	0x00000000	0.0
33	0x00000000	0.0
34	0x00000004	6e-45
35	0x00000000	0.0
36	0x00000004	6e-45
37	0x00000000	0.0
38	0x00000000	0.0
39	0x00000000	0.0
40	0x382075a2	3.8256527e-05
41	0x00000000	0.0
42	0x00000000	0.0
43	0x00000000	0.0
44	0x00000004	6e-45
45	0xb6413ac3	-2.8793445e-06
46	0x00000004	6e-45
47	0x00000000	0.0
48	0x00000004	6e-45
49	0x00000004	6e-45
50	0x00000004	6e-45
51	0x344a73e0	1.8854871e-07
52	0x00000000	0.0
53	0x37e58ecc	2.7365422e-05
54	0x00000000	0.0
55	0x35d5b3d1	1.592207e-06
56	0xb6ffce32	-7.6235965e-06
57	0x00000004	6e-45
58	0x00000000	0.0
59	0x00000000	0.0
60	0xb72cf7c1	-1.0309684e-05
61	0x00000000	0.0
62	0x00000000	0.0
63	0xb51261a4	-5.4531324e-07

exp_avg_sq f4 [64]
0	0x00000000	0.0
1	0x31ebb2bf	6.8597212e-09
2	0x3146f468	2.895172e-09
3	0x319ae7a0	4.5083226e-09
4	0x000001f4	7e-43
5	0x00000000	0.0
6	0x000001f4	7e-43
7	0x00000000	0.0
8	0x2bf8d3c7	1.768024e-12
9	0x00000000	0.0
10	0x00000000	0.0
11	0x33291776	3.9369716e-08
12	0x31b2e3aa	5.2063642e-09
13	0x30215625	5.869388e-10
14	0x000001f4	7e-43
15	0x00000000	0.0
16	0x322b3cec	9.967362e-09
17	0x000001f4	7e-43
18	0x30add92e	1.2649133e-09
19	0x00000000	0.0
20	0x31502fce	3.0295157e-09
21	0x323a6691	1.0849946e-08
22	0x000001f4	7e-43
23	0x32a0d421	1.8722917e-08
24	0x000001f4	7e-43
25	0x2c505a4a	2.9608698e-12
26	0x315109a6	3.0418987e-09
27	0x000001f4	7e-43
28	0x000001f4	7e-43
29	0x00000000	0.0
30	0x3130fa08	2.5753497e-09
31	0x0001dd4f	1.71226e-40
32	0x00000000	0.0
33	0x00000000	0.0
34	0x000001f4	7e-43
35	0x00000000	0.0
36	0x000001f4	7e-43
37	0x00000000	0.0
38	0x00000000	0.0
39	0x00000000	0.0
40	0x331d9704	3.669176e-08
41	0x00000000	0.0
42	0x00000000	0.0
43	0x00000000	0.0
44	0x000001f4	7e-43
45	0x30c25c6a	1.4141623e-09
46	0x000001f4	7e-43
47	0x00000000	0.0
48	0x000001f4	7e-43
49	0x2aa3a31c	2.9067796e-13
50	0x0dd42d6d	1.3076445e-30
51	0x2ea3ef7f	7.454925e-11
52	0x00000000	0.0
53	0x32821c71	1.5146925e-08
54	0x00000000	0.0
55	0x2fb8a7b4	3.3588565e-10
56	0x32020127	7.567258e-09
57	0x000001f4	7e-43
58	0x00000000	0.0
59	0x00000000	0.0
60	0x31a3fd02	4.772688e-09
61	0x00000000	0.0
62	0x00000000	0.0
63	0x306e7205	8.6745927e-10

exp_avg f4 [64, 64]
0	0x00000000	0.0
1	0x80000004	-6e-45
2	0x80000004	-6e-45
3	0x00000004	6e-45
4	0x80000004	-6e-45
5	0x00000000	0.0
6	0x80000004	-6e-45
7	0x00000000	0.0
8	0x80000004	-6e-45
9	0x00000000	0.0
10	0x00000000	0.0
11	0x33e39279	1.05971544e-07
12	0x32808c5a	1.4964986e-08
13	0x3138ee71	2.6911062e-09
14	0x00000004	6e-45
15	0x00000000	0.0
16	0x00000004	6e-45
17	0x80000004	-6e-45
18	0x32e1f0f1	2.6303015e-08
19	0x00000000	0.0
20	0x80000004	-6e-45
21	0x00000004	6e-45
22	0x80000004	-6e-45
23	0x333c3c56	4.3827036e-08
24	0x00000004	6e-45
25	0x80000004	-6e-45
26	0x00000004	6e-45
27	0x80000004	-6e-45
28	0x00000004	6e-45
29	0x00000000	0.0
30	0x3278ef8b	1.4489966e-08
31	0x00000004	6e-45
32	0x00000000	0.0
33	0x00000000	0.0
34	0x80000004	-6e-45
35	0x00000000	0.0
36	0x00000004	6e-45
37	0x00000000	0.0
38	0x00000000	0.0
39	0x00000000	0.0
40	0x33208037	3.7369514e-08
41	0x00000000	0.0
42	0x00000000	0.0
43	0x00000000	0.0
44	0x00000004	6e-45
45	0x80000004	-6e-45
46	0x00000004	6e-45
47	0x00000000	0.0
48	0x80000004	-6e-45
49	0x00000004	6e-45
50	0x00000004	6e-45
51	0x322f2645	1.0195042e-08
52	0x00000000	0.0
53	0x30317cdf	6.456968e-10
54	0x00000000	0.0
55	0x80000004	-6e-45
56	0x2e1ac19e	3.5187513e-11
57	0x00000004	6e-45
58	0x00000000	0.0
59	0x00000000	0.0
60	0x80000004	-6e-45
61	0x00000000	0.0
62	0x00000000	0.0
63	0x00000004	6e-45
64	0x00000000	0.0
65	0x00000004	6e-45
66	0x00000004	6e-45
67	0x00000004	6e-45
68	0x00000004	6e-45
69	0x00000000	0.0
70	0x00000004	6e-45
71	0x00000000	0.0
72	0x00000004	6e-45
73	0x00000000	0.0
74	0x00000000	0.0
75	0x00000004	6e-45
76	0x00000004	6e-45
77	0x00000004	6e-45
78	0x00000004	6e-45
79	0x00000000	0.0
80	0x00000004	6e-45
81	0x00000004	6e-45
82	0x00000004	6e-45
83	0x00000000	0.0
84	0x00000004	6e-45
85	0x00000004	6e-45
86	0x00000004	6e-45
87	0x00000004	6e-45
88	0x00000004	6e-45
89	0x00000004	6e-45
90	0x00000004	6e-45
91	0x00000004	6e-45
92	0x00000004	6e-45
93	0x00000000	0.0
94	0x00000004	6e-45
95	0x00000004	6e-45
96	0x00000000	0.0
97	0x00000000	0.0
98	0x00000004	6e-45
99	0x00000000	0.0
100	0x00000004	6e-45
101	0x00000000	0.0
102	0x00000000	0.0
103	0x00000000	0.0
104	0x00000004	6e-45
105	0x00000000	0.0
106	0x00000000	0.0
107	0x00000000	0.0
108	0x00000004	6e-45
109	0x00000004	6e-45
110	0x00000000	0.0
111	0x00000000	0.0
112	0x00000004	6e-45
113	0x00000004	6e-45
114	0x00000004	6e-45
115	0x00000004	6e-45
116	0x00000000	0.0
117	0x00000004	6e-45
118	0x00000000	0.0
119	0x00000004	6e-45
120	0x00000004	6e-45
121	0x00000004	6e-45
122	0x00000000	0.0
123	0x00000000	0.0
124	0x00000004	6e-45
125	0x00000000	0.0
126	0x00000000	0.0
127	0x00000004	6e-45
128	0x00000000	0.0
129	0x00000004	6e-45
130	0x00000004	6e-45
131	0x00000004	6e-45
132	0x00000004	6e-45
133	0x00000000	0.0
134	0x00000004	6e-45
135	0x00000000	0.0
136	0x00000004	6e-45
137	0x00000000	0.0
138	0x00000000	0.0
139	0x00000004	6e-45
140	0x00000004	6e-45
141	0x80000004	-6e-45
142	0x80000004	-6e-45
143	0x00000000	0.0
144	0x00000004	6e-45
145	0x00000004	6e-45
146	0x00000004	6e-45
147	0x00000000	0.0
148	0x80000004	-6e-45
149	0x00000004	6e-45
150	0x80000004	-6e-45
151	0x00000004	6e-45
152	0x00000004	6e-45
153	0x00000004	6e-45
154	0x00000004	6e-45
155	0x80000004	-6e-45
156	0x80000004	-6e-45
157	0x00000000	0.0
158	0x00000004	6e-45
159	0x80000004	-6e-45
160	0x00000000	0.0
161	0x00000000	0.0
162	0x80000004	-6e-45
163	0x00000000	0.0
164	0x00000004	6e-45
165	0x00000000	0.0
166	0x00000000	0.0
167	0x00000000	0.0
168	0x00000004	6e-45
169	0x00000000	0.0
170	0x00000000	0.0
171	0x00000000	0.0
172	0x00000004	6e-45
173	0x00000004	6e-45
174	0x00000004	6e-45
175	0x00000000	0.0
176	0x00000004	6e-45
177	0x00000004	6e-45
178	0x00000004	6e-45
179	0x80000004	-6e-45
180	0x00000000	0.0
181	0x00000004	6e-45
182	0x00000000	0.0
183	0x00000004	6e-45
184	0x00000004	6e-45
185	0x00000004	6e-45
186	0x00000000	0.0
187	0x00000000	0.0
188	0x80000004	-6e-45
189	0x00000000	0.0
190	0x00000000	0.0
191	0x00000004	6e-45
192	0x00000000	0.0
193	0x00000000	0.0
194	0x00000004	6e-45
195	0x00000004	6e-45
196	0x00000000	0.0
197	0x00000000	0.0
198	0x00000000	0.0
199	0x00000000	0.0
200	0x00000004	6e-45
201	0x00000000	0.0
202	0x00000000	0.0
203	0x00000004	6e-45
204	0x00000004	6e-45
205	0x00000004	6e-45
206	0x00000000	0.0
207	0x00000000	0.0
208	0x00000004	6e-45
209	0x00000000	0.0
210	0x00000004	6e-45
211	0x00000000	0.0
212	0x00000000	0.0
213	0x00000004	6e-45
214	0x00000000	0.0
215	0x00000004	6e-45
216	0x00000000	0.0
217	0x00000000	0.0
218	0x00000004	6e-45
219	0x00000004	6e-45
220	0x00000000	0.0
221	0x00000000	0.0
222	0x00000004	6e-45
223	0x00000000	0.0
224	0x00000000	0.0
225	0x00000000	0.0
226	0x00000000	0.0
227	0x00000000	0.0
228	0x00000000	0.0
229	0x00000000	0.0
230	0x00000000	0.0
231	0x00000000	0.0
232	0x00000004	6e-45
233	0x00000000	0.0
234	0x00000000	0.0
235	0x00000000	0.0
236	0x00000000	0.0
237	0x00000004	6e-45
238	0x00000000	0.0
239	0x00000000	0.0
240	0x00000000	0.0
241	0x00000000	0.0
242	0x00000004	6e-45
243	0x00000004	6e-45
244	0x00000000	0.0
245	0x00000004	6e-45
246	0x00000000	0.0
247	0x00000004	6e-45
248	0x00000004	6e-45
249	0x00000004	6e-45
250	0x00000000	0.0
251	0x00000000	0.0
252	0x00000000	0.0
253	0x00000000	0.0
254	0x00000000	0.0
255	0x00000004	6e-45
